parameters\encoder_1x1024.pth (torch, 5914 bytes, 1 tensors)

encoder_layer.weight f4 [1024, 1]
0.6827572 0.44387442 0.48558688 0.0091810245 0.46793264 -0.5578018 -0.6412802 0.67294127
-0.53026605 -0.27018264 -0.49983498 -0.5071213 -0.057327013 -0.8530614 0.77944297 -0.8429312
-0.5457226 0.9106563 -0.6929933 -0.99187154 -0.9814746 -0.5658763 -0.75755584 0.032873422
-0.8329492 -0.65854 -0.48063955 0.15869293 0.26544037 -0.83392626 0.6572097 -0.016468907
0.34922418 0.9485445 0.5881869 -0.28684965 0.93424463 0.45320794 0.16946256 0.93171936
-0.56625557 -0.55888164 0.099454805 -0.16143593 0.89175457 -0.14136378 -0.43193087 -0.5382872
-0.39487848 -0.24406867 -0.31531787 0.938749 0.105811685 0.26419637 -0.26089644 -0.975682
0.40680876 -0.8228061 0.62902284 -0.01041955 0.26846418 -0.75774944 0.77279645 0.34438065
0.8782296 0.7772746 0.4960053 -0.055508282 0.37113312 -0.9433069 -0.2222948 -0.797478
-0.8726136 0.4824328 0.9760014 0.5965194 -0.1816379 -0.29643795 -0.90629774 -0.63076013
0.8293541 0.43652317 0.39737523 0.8515424 0.99075913 0.43263292 -0.41873768 0.67802197
0.47279125 -0.18284418 0.28672448 0.5756149 -0.7958221 -0.3783792 -0.84076303 -0.19550037
-0.26964998 -0.18528736 0.47369802 0.63857496 0.98731625 0.22747381 0.22619411 0.4261642
-0.6775056 0.23266815 0.31106395 -0.018632784 -0.6035148 0.035980638 0.45623118 0.6713394
-0.7025632 0.19247209 -0.48350513 0.4405333 0.08011584 -0.44511354 -0.13540208 0.7319406
0.5400056 0.5355442 -0.106856614 -0.94227564 -0.020569522 -0.0515428 -0.52758974 1.0015055
0.2860403 -0.5355502 0.26934373 0.38539135 0.68516845 -0.46658584 0.16105242 0.9749648
-0.94803065 -0.3574134 0.87815404 -0.8559417 0.50445694 -0.09931849 0.46059522 -0.22138524
-0.62533486 0.25758502 0.89604074 -0.26558614 0.29966342 0.1519971 -0.9232328 -0.15097624
0.30503222 0.40401843 0.15866241 0.59250057 0.29162216 -0.20498449 0.65555143 -0.87183857
0.59830755 -0.8218024 -0.4251258 -0.27686998 0.38120416 0.7524602 -0.8144826 -0.6055608
-0.9090202 -0.6818619 0.7036862 -0.73111063 0.1795244 -0.6607726 -0.54551804 -0.58650637
-0.7932878 -0.347167 -0.22074777 -0.39470255 0.5390318 0.9536729 0.49112546 -0.4979835
-0.6113198 -0.5812235 0.6441697 0.59631395 -0.7734082 -0.08604647 0.5959242 0.55041575
0.28158188 0.3976912 -0.48348817 -0.22316886 0.40249905 0.9140244 0.111664236 0.33166435
0.41374293 0.9801091 0.943138 0.86176807 0.70164776 -0.2619547 -0.18857814 0.81960225
-0.8329697 -0.4267598 -0.49919286 0.913034 -0.5376654 -0.76316535 -0.46151426 0.013397116
-0.9628154 -0.71433085 -0.64040315 0.42940056 0.17310983 -0.498494 0.1999994 -0.90074736
0.8408293 -0.27546337 0.22122213 -0.7473161 -0.8283649 0.05992244 0.3213644 0.81272167
-0.69064415 0.007932472 -0.98736155 -0.317855 0.07957514 -0.35381836 -0.5593044 0.70052624
-0.72598535 0.055636555 -0.5541258 0.89043164 0.9779758 0.16481166 0.8458348 -0.8465167
-0.16138215 0.09502279 -0.77001625 -0.9469158 0.5700395 -0.08966074 0.6637445 0.2008917
00000000: 2dc9 2e3f 8243 e33e d89e f83e 026c 163c
00000010: de94 ef3e 19cc 0ebf f02a 24bf e145 2c3f
00000020: 84bf 07bf 6155 8abe 5fea ffbe b4d2 01bf
00000030: bbcf 6abd 3b62 5abf 9389 473f 57ca 57bf
00000040: 7ab4 0bbf c520 693f 0268 31bf 4beb 7dbf
00000050: eb41 7bbf 45dd 10bf 2eef 41bf 48a6 063d
00000060: 293c 55bf 1496 28bf 6316 f6be 6680 223e
00000070: cde7 873e 317c 55bf e53e 283f cde9 86bc
00000080: 83cd b23e d0d3 723f 6b93 163f f5dd 92be
00000090: a82a 6f3f df0a e83e 9887 2d3e 2985 6e3f
000000a0: 20f6 10bf de12 0fbf f6ae cb3d 764f 25be
000000b0: 074a 643f abc1 10be 0b26 ddbe 31cd 09bf
000000c0: 832d cabe 23ed 79be 5871 a1be db51 703f
000000d0: ccb3 d83d bf44 873e 3894 85be 4cc6 79bf
000000e0: 3d49 d03e 6ca3 52bf a407 213f c3b6 2abc
000000f0: 2374 893e defb 41bf fdd5 453f a952 b03e
00000100: a8d3 603f 78fb 463f 68f4 fd3e a75c 63bd
00000110: 2905 be3e 907c 71bf 40a1 63be 8527 4cbf
00000120: 9b63 5fbf 6f01 f73e 3adb 793f 7fb5 183f
00000130: 49ff 39be b7c6 97be 2103 68bf 7f79 21bf
00000140: 8d50 543f f77f df3e c474 cb3e affe 593f
00000150: 64a2 7d3f 1082 dd3e c964 d6be d992 2d3f
00000160: b211 f23e 813b 3bbe 8dcd 923e 805b 133f
00000170: ffba 4bbf ebba c1be 3f3c 57bf 4031 48be
00000180: 900f 8abe f8bb 3dbe 8c88 f23e a679 233f
00000190: c2c0 7c3f e5ee 683e 6e9f 673e 3232 da3e
000001a0: 0271 2dbf 8f40 6e3e c643 9f3e c8a3 98bc
000001b0: f27f 1abf 6f60 133d 2297 e93e e6dc 2b3f
000001c0: 2fdb 33bf 6717 453e fc8d f7be 958d e13e
000001d0: c613 a43d ece5 e3be d8a6 0abe 7660 3b3f
000001e0: cf3d 0a3f 6d19 093f a4d7 dabd fa38 71bf
000001f0: 6a81 a8bc 8b1e 53bd 1f10 07bf 5531 803f
00000200: e073 923e d119 09bf 6ce7 893e 0452 c53e
00000210: 3367 2f3f 57e4 eebe edea 243e 4b97 793f
00000220: 23b2 72bf e4fe b6be b4ce 603f ff1e 5bbf
00000230: 1724 013f 7e67 cbbd 23d3 eb3e d0b2 62be
00000240: f215 20bf 2fe2 833e ed62 653f e8fa 87be
00000250: 7c6d 993e 21a5 1b3e fc58 6cbf 8499 1abe
00000260: 2f2d 9c3e 81db ce3e 6678 223e 1eae 173f
00000270: 804f 953e 74e7 51be 38d2 273f d030 5fbf
00000280: af2a 193f a461 52bf 17aa d9be e7c1 8dbe
00000290: 312d c33e 3ba1 403f ef81 50bf 0806 1bbf
000002a0: 8cb5 68bf 808e 2ebf c724 343f 112a 3bbf
000002b0: 3fd5 373e 6528 29bf 12a7 0bbf 4825 16bf
000002c0: e914 4bbf dfbf b1be b40b 62be 7416 cabe
000002d0: fdfd 093f e823 743f cc74 fb3e b1f7 febe
000002e0: 747f 1cbf 10cb 14bf 4ee8 243f 08a8 183f
000002f0: 14fe 45bf 2239 b0bd 7d8e 183f 0ce8 0c3f
00000300: 802b 903e 2e9e cb3e c38b f7be 6186 64be
00000310: 5b14 ce3e 81fd 693f 38b0 e43d e9cf a93e
00000320: 1dd6 d33e 6ee8 7a3f 7e71 713f d59c 5c3f
00000330: 309f 333f ed1e 86be a11a 41be 74d1 513f
00000340: 813d 55bf 4380 dabe 3596 ffbe 99bc 693f
00000350: 71a4 09bf ce5e 43bf 994b ecbe 947f 5b3c
00000360: 127b 76bf 63de 36bf 76f1 23bf 64da db3e
00000370: b443 313e 9b3a ffbe a5cc 4c3e 6197 66bf
00000380: 9740 573f 8909 8dbe 0e88 623e 1c50 3fbf
00000390: b90f 54bf 3c71 753d e089 a43e 870e 503f
000003a0: 0ece 30bf 33f7 013c bac3 7cbf e4bd a2be
000003b0: 4af8 a23d ae27 b5be 932e 0fbf b055 333f
000003c0: 2dda 39bf 28e3 633d 30db 0dbf 54f3 633f
000003d0: 9f5c 7a3f 63c4 283e a188 583f 52b5 58bf
000003e0: 5d41 25be 4f9b c23d c91f 45bf 1369 72bf
000003f0: 1cee 113f 0da0 b7bd 29eb 293f 8eb6 4d3e
