parameters/encoder_1x65536.pth (torch, 263969 bytes, 1 tensors)

encoder_layer.weight f4 [65536, 1]
00000000: dd54 653e e27c aebe 244c ab3e 0b3f 083f
00000010: cacc c93e 0b93 813e e4d3 2e3f 65ad d53e
00000020: e887 463e e721 6ebe 49e6 25bf cfb6 82be
00000030: d1a9 42bf 3261 803a e64f 02bf 0f17 773f
00000040: 4929 0e3e a091 543f 95af c7bc ee98 2d3e
00000050: f26d c8be e11c c13d c899 1abf dcc0 e43e
00000060: a555 3f3f 82a2 09bf 3a24 c83e 71d6 edbe
00000070: 283d 9fbd 0bb3 773f 6a79 4e3f f641 63bf
00000080: b105 613e f268 75bf c0ce 443f 3cfc d6be
00000090: a62d 093a eb17 42bf d16c 1cbe 486a 7dbf
000000a0: 6be2 e6bb 7d9d cb3e 37d2 d6be 298d ccbe
000000b0: f12a 11bf 2daf 54bf b441 62be cd80 b1be
000000c0: 9a23 353e 79fb ad3e 74cc 36bf 6cfa 03bf
000000d0: 9bdf 8bbe f72c f43d b18c 353f 2978 2f3f
000000e0: c01d 903e 42d4 d0be 8f52 5abd 0b7e 75bf
000000f0: 3b80 8d3e 475d cd3e 023a bd3d 445e dfbd
00000100: 496f c4be 1a66 813d a474 c33b a9d5 b0bd
00000110: 30da 133f b326 873d c14d 9fbd 3bb1 2bbf
00000120: 05c7 b7be 76cd 73bf e6d0 113f 043c 623e
00000130: bc86 66bf 5500 31be 4bc2 7dbf 37d9 15bf
00000140: 6154 3f3f cb00 e9bd ec91 343e 9786 e6be
00000150: d0ea 7d3f 9388 5e3f 9a5a 9cbe 9a21 593e
00000160: e01f 783f 45e0 5dbf db42 193e 6b55 d33e
00000170: b411 7b3f f1cb 333f 5c72 6f3f ee50 2fbf
00000180: 5706 893b aa7e adbe 5392 fbbd e61f 31bf
00000190: 4a86 523f 8ea6 73be 86a6 2dbf 5033 d53e
000001a0: 4dec cbbe 5bc9 52bf d604 373f e92a f73d
000001b0: 89fd bb3e f324 a9be de6f 353f 6e4b 533f
000001c0: 842b 51bf b467 413f 0edd a9be 859d 24bf
000001d0: 1526 22bf 785e 783f 4539 d23e 512c 16be
000001e0: a588 a43d d95d 3bbf e679 42bf aae3 6dbf
000001f0: a8cc 2e3e 6b17 2dbf 7952 883e 4eb9 6bbf
00000200: b04f a0be 7cfb 9f3e 85e5 64bf e1f6 c2bd
00000210: 13f5 81be d951 73bf 8578 7d3f 6306 103f
00000220: b4f5 17bf 883e 063f b1e9 ebbe ed70 a23d
00000230: 6f1d b33e 8be9 653f e17c 293f c53f 8dbc
00000240: 079a ee3d d8e5 443f 01ed d8be f50e d03e
00000250: 8347 57bf 8f1c 67bf 856e 543f 23a4 603f
00000260: 2339 0abf e452 4dbf 9156 413d 65a4 cebe
00000270: 304c 493f 029c 173d 4c44 52bf f9a0 2bbf
00000280: 5ad7 453f df8d 62bf 43ec 3f3e 7a7c 2dbf
00000290: 218f 3d3e d9bf e93e 6529 983e bff2 793f
000002a0: c6bd 77bf 784a b63e 7c6f 283f bf2b 4e3f
000002b0: 1298 2b3f 030d 583e 03c7 103e cc58 f5be
000002c0: 4a68 053f 4c1d 9bbe 5bc6 a4bd 6472 a2bd
000002d0: 0b50 2b3f d7f4 a53e b9bd b83d f640 2a3f
000002e0: 8f7c 313f 512a 83be 3f50 6abf 1e94 583f
000002f0: 8ea5 203f 551c 223f a039 593f d6b9 523f
00000300: 5af1 a0bd dac3 b3be f3e8 65be 2a40 7abf
00000310: b169 1bbe 2db6 cb3e 3610 033e f634 733f
00000320: 107a 033f 6af6 74bf aaca 34be 9a4f 8b3e
00000330: 506e f63e 2174 0dbf a642 b33e b537 abbe
00000340: fe0d 6cbf 62bb 4bbf 54ba dbbd f80a 863d
00000350: 2209 3c3f 5ffb d83c 6363 cf3e fef5 c93d
00000360: fff7 9fbe c837 043d 5164 77bd 5c93 593e
00000370: b691 2a3f c734 47bf 3f33 5fbf 5445 d73e
00000380: ea56 ab3e 2669 bc3e 8257 42bf e56e 61bf
00000390: 895d e33e b60e 743f 5601 4f3d c4f8 173f
000003a0: 6418 393f 35ef e2be d353 1a3d d380 22bf
000003b0: 78d9 edbe 79ec 473f 7b55 473f c52b 20bf
000003c0: a498 883b 2653 b3be 5562 7cbf 1572 923e
000003d0: 1336 09bf 4ff1 f43e d58a a6be acce ecbe
000003e0: e1a3 3bbf 8dc8 3ebf 3a0e 0cbf 79e0 703e
000003f0: c3c3 9dbd 3348 62bf 10b3 1ebf e85d 41bf
0.22395654 -0.34079653 0.33456528 0.53221196 0.39414054 0.25307497 0.6829207 0.41733852
0.19387782 -0.2325512 -0.6480451 -0.25530097 -0.7604037 0.0009794591 -0.50903165 0.9651956
0.13882937 0.83034706 -0.024375716 0.1695287 -0.39146382 0.09429336 -0.603909 0.4467839
0.7474006 -0.5376359 0.3909014 -0.46452668 -0.077753365 0.9675757 0.80654013 -0.88772523
0.21974827 -0.9586326 0.76877975 -0.41989315 0.00052329374 -0.75817746 -0.15275885 -0.989903
-0.007046034 0.39768592 -0.41957256 -0.39951447 -0.5670615 -0.830798 -0.22095376 -0.3466858
0.17689362 0.3398092 -0.7140572 -0.5155399 -0.27319035 0.11922639 0.70917803 0.68542725
0.28147697 -0.4078694 -0.05330139 -0.9589545 0.27636895 0.40110227 0.0923958 -0.109066516
-0.38366154 0.063183025 0.0059648324 -0.086345024 0.577548 0.06599178 -0.07778502 -0.6706731
-0.35894027 -0.95235384 0.5695938 0.22093207 -0.9004934 -0.17285283 -0.9912459 -0.5853457
0.74738127 -0.11377104 0.1763379 -0.4502456 0.9918642 0.86927146 -0.30537874 0.21204224
0.9692364 -0.86670333 0.1496691 0.41276106 0.9807389 0.70233065 0.93533874 -0.68482864
0.004181664 -0.338857 -0.122837685 -0.691893 0.8223616 -0.23794004 -0.6783222 0.4164071
-0.3982872 -0.82338494 0.71491754 0.12068731 0.3671687 -0.33036003 0.7087382 0.8253697
-0.81707025 0.75548863 -0.33176464 -0.64302856 -0.6333936 0.9701915 0.41059318 -0.14665343
0.080338754 -0.73190075 -0.7596725 -0.9292551 0.17070258 -0.6761386 0.26625422 -0.9207963
-0.31310797 0.31246555 -0.8941272 -0.09519745 -0.2538229 -0.95046765 0.99012023 0.56259745
-0.5935929 0.52439165 -0.4607673 0.07931695 0.34983394 0.89809483 0.66206175 -0.017242322
0.11650472 0.76913214 -0.4236832 0.4063641 -0.84093493 -0.9027795 0.8298114 0.8775045
-0.53993434 -0.80204606 0.047201697 -0.40359798 0.7863188 0.037014015 -0.8213546 -0.670425
0.77281725 -0.8849773 0.1874247 -0.6776806 0.1851163 0.4565418 0.29719082 0.97636026
-0.96773946 0.3560369 0.6579511 0.805355 0.67028916 0.21098714 0.14138417 -0.4791931
0.5211226 -0.3029579 -0.08045646 -0.079319745 0.6691901 0.3241336 0.09020562 0.6650537
0.69330686 -0.25618222 -0.91528696 0.8460101 0.62752616 0.6332448 0.84853554 0.82314813
-0.07858534 -0.3511036 -0.22452144 -0.97754157 -0.15177037 0.39787427 0.12799153 0.95002687
0.5135813 -0.956885 -0.17655435 0.2720917 0.48131037 -0.55255324 0.35011786 -0.3344094
-0.9220885 -0.795828 -0.10728899 0.06545061 0.73451436 0.02648705 0.40505514 0.098613724
-0.31243894 0.03227976 -0.060398404 0.2124762 0.6662859 -0.77814907 -0.8718757 0.4204508
0.33464748 0.36798972 -0.75914776 -0.88059837 0.444073 0.9533495 0.050538383 0.5936396
0.7230284 -0.44323125 0.037677597 -0.6347782 -0.46454978 0.78095204 0.7786481 -0.62566787
0.004168587 -0.35024375 -0.9858754 0.28602663 -0.53598136 0.47840354 -0.32527795 -0.46251428
-0.73296934 -0.74524766 -0.5470921 0.2352313 -0.07703354 -0.8839142 -0.6199198 -0.75533915
